model/best_model.pth (torch, 249799 bytes, 10 tensors)

conv1.weight f4 [6, 1, 5, 5]
0	0x3fb4fe16	1.4140041
1	0x4030f6fc	2.7650747
2	0x40288a7c	2.6334524
3	0x3faea9e4	1.3645597
4	0x3ead5004	0.3385011
5	0x3f9f9ee8	1.2470369
6	0x40831e75	4.097468
7	0x40a06f4a	5.013585
8	0x405c528d	3.4425385
9	0x3f1c8487	0.6113972
10	0xbd05433a	-0.032534815
11	0x3fbb2e01	1.4623414
12	0x404ab615	3.1673634
13	0x4026f3b8	2.6086254
14	0x3dba4d73	0.090968035
15	0xbf1b812d	-0.6074398
16	0xbf1110a7	-0.56666034
17	0x3e8ab618	0.27092052
18	0x3f2c03bf	0.67193216
19	0xbe91d66a	-0.28483897
20	0xbf51e79e	-0.81994045
21	0xbf70b758	-0.9402976
22	0xbe45ca69	-0.19315495
23	0x3e0e6684	0.13906294
24	0xbe83f573	-0.257732
25	0xbee42ba8	-0.44564557
26	0xbeb500e5	-0.35352245
27	0x3dbc1c26	0.091850564
28	0x3dbdbada	0.09264155
29	0xbf2f80f0	-0.6855612
30	0xbf11a43c	-0.56891227
31	0xbe4693c1	-0.19392301
32	0x3f046727	0.517199
33	0x3f39bd5f	0.7255458
34	0xbf37bbdd	-0.7177103
35	0xbf0fc1a1	-0.5615483
36	0xbd566d1e	-0.052350156
37	0x3f42a5f2	0.7603446
38	0x3fb48539	1.4103156
39	0xbd8a395c	-0.06749222
40	0xbe6a91dc	-0.22907203
41	0xbcde8f97	-0.027168078
42	0x3f76967f	0.9632339
43	0x3fad7011	1.3549825
44	0xbe33f6f4	-0.17574674
45	0xbef65267	-0.48109743
46	0x3da3dbb0	0.080008864
47	0x3f43bd43	0.76460665
48	0x3f8a8ae9	1.0823642
49	0xbefec8dc	-0.4976262
50	0xbf7e6002	-0.99365246
51	0xbebc3eda	-0.36766702
52	0x3efcc8ae	0.49371856
53	0x3f9cf020	1.226078
54	0x3d85e753	0.06538262
55	0xbfc1eac7	-1.5149773
56	0xbf72b51b	-0.94807595
57	0x3e916fd5	0.28405634
58	0x3f7f26b9	0.9966846
59	0x3ecd5069	0.4010041
60	0xbfc7dd29	-1.5614368
61	0xbf6f3e3c	-0.9345434
62	0x3eb9c4df	0.36283013
63	0x3fbcd8d2	1.4753668
64	0x3f4de61b	0.8042924
65	0xbf92c4d6	-1.146632
66	0xbf6fe949	-0.9371534
67	0x3ec832be	0.39101213
68	0x3fa153f0	1.2603741
69	0x3f5dee9c	0.86692214
70	0xbf2a8c65	-0.66620475
71	0xbf5f23d4	-0.87164044
72	0x3e0baad3	0.13639383
73	0x3f9acd63	1.2093929
74	0x3f6b144c	0.91827846
75	0xbf38e382	-0.7222215
76	0xbf1d22c7	-0.6138119
77	0xbf0d2aa8	-0.55143213
78	0xbf2e0100	-0.67970276
79	0xbfa10d75	-1.2582232
80	0xbeed3474	-0.4632908
81	0x3e75d24e	0.24006006
82	0x3f978b7c	1.1839442
83	0x3fb9612f	1.4482783
84	0x3ef69099	0.48157194
85	0xbdac4366	-0.08411293
86	0x3f8f352c	1.1188102
87	0x405f233f	3.4865263
88	0x40aac70b	5.336797
89	0x3fcc617e	1.5967252
90	0xbe188944	-0.14896113
91	0x3e8d4ee9	0.27599266
92	0x3ee99135	0.45618597
93	0x3fb8d217	1.4439114
94	0x3e3281e3	0.1743236
95	0xbf213029	-0.6296411
96	0xbf3c3486	-0.73517644
97	0xbf25424d	-0.6455429
98	0x3be0d3d5	0.00686119
99	0xbf1a8d68	-0.6037202
100	0xbe9ac34b	-0.30227122
101	0x3f19bcea	0.60053885
102	0x3f17bf53	0.5927631
103	0xbdea44ff	-0.11438941
104	0xbebe58c2	-0.37177092
105	0xbe75e05a	-0.24011365
106	0x3f84450d	1.0333573
107	0x3f84e721	1.0383035
108	0x3dd0784b	0.10179194
109	0xbea52338	-0.32253432
110	0xbf2fd733	-0.6868774
111	0x3f67caa2	0.9054357
112	0x3f7e75af	0.9939832
113	0xbdba6c8d	-0.09102736
114	0xbf1b534f	-0.60673994
115	0xbf2e9818	-0.68200827
116	0x3eed53d3	0.46353015
117	0x3f4f6150	0.8100786
118	0xbda37a29	-0.079822846
119	0xbf26d628	-0.65170527
120	0xbf58e4a8	-0.847239
121	0x3f22de15	0.6362012
122	0x3f48ad93	0.78389853
123	0xbe377cbc	-0.17918676
124	0xbf250c9e	-0.6447238
125	0xbe6a8e9b	-0.22905962
126	0x3f42f7c4	0.7615931
127	0x3f32ea08	0.69888353
128	0x3f1a6484	0.60309625
129	0xbf3ae5f9	-0.7300716
130	0xbf15952e	-0.58430755
131	0x3f4c7eec	0.7988117
132	0x3f937d18	1.152255
133	0x3f5ae6dc	0.85508513
134	0xbe9d42aa	-0.30714923
135	0xbf7be203	-0.9839174
136	0x3ea5def4	0.32396662
137	0x3f45d69f	0.7728061
138	0x3f1b8c40	0.6076088
139	0xbf18b614	-0.5965283
140	0xbf3bf652	-0.7342273
141	0x3dd05247	0.10171943
142	0x3eb97730	0.36223745
143	0x3ecd32c8	0.40077806
144	0xbf66fad4	-0.90226483
145	0xbf7f1b09	-0.9965063
146	0xbe40dcb1	-0.18834187
147	0x3f079ebb	0.5297658
148	0x3f0aaeb0	0.541728
149	0xbf1043a7	-0.5635323

conv1.bias f4 [6]
0	0xbeda3b4c	-0.42623365
1	0xbf2aea73	-0.6676399
2	0xbee00da2	-0.437604
3	0xbf3c041c	-0.7344377
4	0xbef04112	-0.46924645
5	0xbf1fb16d	-0.62380105

conv2.weight f4 [16, 6, 5, 5]
0	0x3d8466bc	0.064649075
1	0xbcb45d4f	-0.02201715
2	0xbe49a3d1	-0.19691397
3	0xbdcaf757	-0.099104576
4	0xbddb674c	-0.10713062
5	0xbcff8e43	-0.031195765
6	0xbe24f87f	-0.16110419
7	0xbe09039a	-0.1338028
8	0xbe29d5eb	-0.1658551
9	0xbd819435	-0.063270964
10	0x3cd45189	0.025917785
11	0xbdaba579	-0.08381171
12	0xbe6738e1	-0.22580291
13	0xbe39b1c8	-0.18134224
14	0x3c50afc1	0.0127372155
15	0xbddb732a	-0.10715325
16	0xbe1303fa	-0.14356986
17	0xbddbacb9	-0.107263036
18	0x3cee2acd	0.029073143
19	0xbd2172b2	-0.039416023
20	0xbe052f0d	-0.1300623
21	0xbe2d440d	-0.1692049
22	0xbd17bc53	-0.037044834
23	0xbcf02ef7	-0.02931927
24	0x3dd96e54	0.106167465
25	0xbdf576d5	-0.11985556
26	0xbc85ec09	-0.016347902
27	0xbe06826c	-0.1313569
28	0xbe0377f5	-0.12838729
29	0xbe044b8f	-0.12919448
30	0xbdd30f1a	-0.10305615
31	0xbd646739	-0.055762503
32	0xbe65fdf1	-0.22460152
33	0xbe0a09f4	-0.1348036
34	0xbe1ba834	-0.15200883
35	0xbe443b1e	-0.19163176
36	0xbe60d655	-0.21956761
37	0xbe68a953	-0.22720842
38	0xbd41320b	-0.047166865
39	0x3bf61df1	0.0075108935
40	0xbe7f2f25	-0.24920328
41	0xbe907466	-0.28213805
42	0xbe3f496c	-0.18680352
43	0xbe109275	-0.14118369
44	0xbdc3a57b	-0.09553047
45	0xbd93e138	-0.072206914
46	0xbdf2204f	-0.118225686
47	0xbe452d3f	-0.19255541
48	0xbe156647	-0.14589797
49	0x3c4b9aea	0.012427071
50	0xbd2bd83a	-0.041954257
51	0x3b8de35c	0.004330082
52	0xbd0ccbef	-0.034374174
53	0xbe1de853	-0.15420656
54	0x3d35784d	0.04430418
55	0xbd9f3c03	-0.07775118
56	0xbdd99e9d	-0.10625956
57	0xbdd928fc	-0.1060352
58	0x3cabaf1b	0.02095752
59	0x3ca6a114	0.02034048
60	0xbe29864d	-0.16555138
61	0xbccff2c1	-0.025384309
62	0xbdacfb7e	-0.08446406
63	0x3d2bb414	0.041919783
64	0x3d1e9f2d	0.03872602
65	0xbe0ab2ae	-0.13544723
66	0xbe163621	-0.14669086
67	0xbdcb4f5f	-0.09927248
68	0x3c731b65	0.014838074
69	0x3b23049b	0.0024874571
70	0x3c1024a6	0.0087978
71	0x3c85af54	0.016318955
72	0xbd0ed6e5	-0.03487291
73	0xbd8455dd	-0.064616896
74	0xbc873422	-0.016504351
75	0x3c2fc7a3	0.010728749
76	0xbdc2a055	-0.09503237
77	0xbdb16757	-0.08662289
78	0xbe4fae3b	-0.20281307
79	0xbcdc8a52	-0.026921425
80	0xbbc1ab69	-0.0059103263
81	0xbdf5b827	-0.11998015
82	0xbe1d116b	-0.15338676
83	0xbd92655a	-0.071482375
84	0x3aadbe20	0.0013255514
85	0xbdb4fa15	-0.08836762
86	0xbe38b414	-0.18037444
87	0xbd3eb21c	-0.046556577
88	0xbdf32cff	-0.11873817
89	0xbb16e058	-0.0023021903
90	0xbe6ad9c6	-0.22934636
91	0xbe8174e7	-0.25284502
92	0xbe2012c1	-0.15632154
93	0xbd7af017	-0.061264124
94	0xbc1bd8fa	-0.00951218
95	0xbe6eed08	-0.23332608
96	0xbd98604a	-0.07440241
97	0xbc5d6896	-0.013513705
98	0x3d1ef08f	0.038803633
99	0xbc4739f7	-0.012159816
100	0xbd48cb54	-0.049022034
101	0xbce52ee3	-0.027976459
102	0xbdc3cc31	-0.09560431
103	0xbc9e0381	-0.01928878
104	0xbda39bc8	-0.07988697
105	0xbc894ef5	-0.016761282
106	0xbded9420	-0.11600518
107	0xbc2e7c90	-0.010649815
108	0xbdcd7ee9	-0.10033972
109	0xbe1e883f	-0.15481661
110	0xbd9a7b25	-0.07543019
111	0x3afce4c1	0.0019294248
112	0xbe01d7d4	-0.12679988
113	0xbc8c7e50	-0.017150074
114	0xbdfa40f7	-0.12219422
115	0xbe0ceed3	-0.13762979
116	0xbe2c7ca9	-0.16844429
117	0xbe0c06fa	-0.13674536
118	0xbdf37c3f	-0.118889324
119	0xbd388fa2	-0.045058854
120	0xbe338a45	-0.17533214
121	0xbe562acf	-0.20914768
122	0xbd9a95b3	-0.07548084
123	0xbd2427b5	-0.04007693
124	0xbdb88857	-0.0901038
125	0xbd52c2d8	-0.05145535
126	0xbe216fd4	-0.15765315
127	0xbdd547c8	-0.10414082
128	0xbd9db90b	-0.0770131
129	0xbe0e8567	-0.13918076
130	0xbd1be17e	-0.038056843
131	0x3c6319ce	0.013861133
132	0xbd3c2790	-0.045936167
133	0xbd84f45c	-0.0649192
134	0xbd409ffd	-0.047027577
135	0x3d477f20	0.04870522
136	0xbc0fff9c	-0.008788969
137	0xbce4db97	-0.02793674
138	0x3cd13c46	0.025541436
139	0xbd34f54f	-0.044179257
140	0xbdb78db1	-0.08962572
141	0xbab1b585	-0.0013558125
142	0xbda9384b	-0.0826269
143	0xbc7159b8	-0.014730863
144	0x3c5a90f7	0.013340226
145	0xbd040506	-0.032231353
146	0xbe17e3bd	-0.14832969
147	0xbdec1e32	-0.11529197
148	0x3cc6c1fb	0.024262419
149	0xbd1102b6	-0.035402976
150	0x3e2f1546	0.17097959
151	0x3cf134d6	0.02944414
152	0xbe5797cd	-0.21054001
153	0xbe5922dc	-0.21204704
154	0xbe2f4ccf	-0.17119144
155	0xbbf3c8bd	-0.0074397014
156	0xbdd878c0	-0.10569906
157	0xbeaeba81	-0.34126666
158	0xbed26ad7	-0.41097137
159	0xbed7e06b	-0.42163405
160	0x3dddb753	0.10825982
161	0xbd03955d	-0.032124866
162	0xbe9751a0	-0.29554462
163	0xbea36eeb	-0.3192056
164	0xbe7a42aa	-0.24439493
165	0x3d183df1	0.037168447
166	0xbd6f50ee	-0.05842679
167	0xbdd4b9a4	-0.10386971
168	0xbd4923d8	-0.04910645
169	0xbd4bd6f9	-0.04976556
170	0xbd71f7cb	-0.059074204
171	0x3c573b9d	0.0131367715
172	0x3dbc2894	0.09187427
173	0x3dbe939c	0.09305498
174	0xbd830db7	-0.063991
175	0xbd68b270	-0.056810796
176	0xbcf31b76	-0.02967618
177	0xbe0c0535	-0.13673861
178	0xbe06f314	-0.13178664
179	0xbe42de51	-0.1903012
180	0xbdf64114	-0.120241314
181	0xbde5ed5d	-0.11226914
182	0xbdc652ef	-0.09683787
183	0xbe17187c	-0.14755434
184	0xbe07e3de	-0.13270518
185	0xbe33c332	-0.1755493
186	0xbd8bb006	-0.06820683
187	0xbe49f9bf	-0.19724177
188	0xbe0fc148	-0.14038575
189	0xbd33f628	-0.043935925
190	0xbe8a03b4	-0.2695595
191	0xbdda8d3c	-0.106714696
192	0xbe1e7ee2	-0.1547809
193	0xbe3588fd	-0.17728038
194	0xbd81efcb	-0.06344565
195	0xbe3e54c9	-0.1858703
196	0x3cfeac5a	0.031088043
197	0xbdf4c60f	-0.11951839
198	0xbd24a61b	-0.040197473
199	0xbd0aeb3b	-0.03391574
200	0xbd348a59	-0.04407725
201	0xbe09b2ba	-0.13447085
202	0xbcff4bbe	-0.031164046
203	0xbdc3008a	-0.09521587
204	0xbdaa8ba5	-0.08327416
205	0x3c377443	0.011197153
206	0xbe282455	-0.1642011
207	0xbe19c04e	-0.15014765
208	0xbe533aba	-0.20627871
209	0xbc9647ec	-0.018344842
210	0xbde76286	-0.11298089
211	0xba90728e	-0.0011020468
212	0xbe2e8ace	-0.17045137
213	0xbd104496	-0.03522166
214	0x3e1f6a4a	0.1556789
215	0xbdf53521	-0.11973024
216	0x3cb24cf8	0.021765217
217	0xbdcfd72e	-0.10148464
218	0x3cf47f5e	0.02984589
219	0x3dacf258	0.08444661
220	0xba99f9d7	-0.0011747432
221	0x3d9e7291	0.077366956
222	0x3d701817	0.058616724
223	0x3e2b70b3	0.1674221
224	0x3e2afddc	0.16698402
225	0x3d0c5688	0.03426221
226	0xbe2d5eab	-0.16930644
227	0xbe380463	-0.17970423
228	0xbe020b4a	-0.12699619
229	0xbe0169f0	-0.12638068
230	0xbd68fa4b	-0.056879323
231	0xbdc861fd	-0.09784315
232	0xbe7d7aaf	-0.24753831
233	0xbe8ec372	-0.27883488
234	0xbe93ce59	-0.28868368
235	0xbddcad62	-0.10775258
236	0xbd0d6069	-0.034515772
237	0xbd9d0ab2	-0.076680556
238	0xbe303194	-0.17206413
239	0xbcbe0633	-0.023196315
240	0xbe6dbcf2	-0.23216608
241	0xbd07cde4	-0.033155337
242	0xbe241197	-0.16022335
243	0xbe0faa7d	-0.1402988
244	0xbdb5e226	-0.08881025
245	0xbe624517	-0.22096668
246	0xbc1fbbbf	-0.009749352
247	0x3d069fce	0.032867245
248	0x3d181971	0.037133638
249	0x3dba4468	0.09095079
250	0x3e09df45	0.13464077
251	0x3b910909	0.004426126
252	0x3b9c40ad	0.004768452
253	0x3ca437e3	0.02004618
254	0xbda9c9b9	-0.08290429
255	0x3d5045f9	0.05084798

conv2.bias f4 [16]
0	0x3e6187b2	0.2202442
1	0x3e915f05	0.28392807
2	0x3e42af8f	0.19012283
3	0x3e4541a3	0.1926332
4	0xbdb4cc91	-0.088280804
5	0xbdfdec9c	-0.12398645
6	0x3b4e138e	0.003144476
7	0xbe2c4d73	-0.1682642
8	0x3d37f17a	0.044908024
9	0x3ea78f23	0.32726392
10	0xbd8c3483	-0.06845953
11	0x3e6c95e8	0.2310406
12	0x3e526ff0	0.20550513
13	0xbe033915	-0.12814744
14	0x3e0a9e19	0.13536872
15	0x3defbb29	0.1170562

fc1.weight f4 [120, 400]
0	0x3d3cd28e	0.046099238
1	0x3cf4ee49	0.02989878
2	0x3d300085	0.042969245
3	0x3da4d188	0.080477774
4	0xbde9a40e	-0.11408244
5	0x3e091b61	0.1338935
6	0x3e239232	0.15973738
7	0xbd95ced0	-0.07314837
8	0x3da63898	0.08116263
9	0xbc21c60a	-0.009873876
10	0xbd48667a	-0.048925854
11	0x3e99e6d8	0.30058932
12	0x3e5aa4fb	0.21351998
13	0x3e473871	0.19455124
14	0xbd09211c	-0.03347884
15	0xbce13f13	-0.027495896
16	0x3e6f795f	0.23386143
17	0x3e160fda	0.14654484
18	0x3c53e246	0.012932366
19	0xbd80ff53	-0.06298699
20	0x3dc28e90	0.09499848
21	0x3e188872	0.148958
22	0x3d2997aa	0.041404404
23	0x3e3ec385	0.18629272
24	0xbdd56e74	-0.10421458
25	0xbd8ed597	-0.06974333
26	0x3dab882d	0.08375583
27	0x3decad11	0.11556447
28	0x3cac1d48	0.021010056
29	0xbdd01264	-0.10159758
30	0x3d9b032b	0.075689636
31	0x3e430007	0.19042979
32	0xbdc53e52	-0.09631027
33	0x3db882fb	0.090093575
34	0xbdaca1cb	-0.08429297
35	0xbcafe59b	-0.02147179
36	0x3e7bfd7f	0.2460842
37	0x3b943ba1	0.00452371
38	0xbb7d6994	-0.0038667666
39	0xba014780	-0.0004931614
40	0x3db3c69a	0.087781146
41	0x3eadecbe	0.33969682
42	0x3c681f73	0.014167654
43	0xbd04bc22	-0.03240598
44	0x3cc251c2	0.023720626
45	0x3d44e96f	0.048074182
46	0x3e32dfa8	0.1746813
47	0x3d59acdf	0.05314338
48	0xbca28f61	-0.019843759
49	0xbd9baa09	-0.07600791
50	0x3c2127dd	0.009836164
51	0x3dabfb2f	0.08397519
52	0x3da1b2f1	0.078954585
53	0x3db3c12d	0.0877708
54	0xbe5741d6	-0.21021208
55	0x3dc1d895	0.09465138
56	0x3e393640	0.18087101
57	0xbd899ee0	-0.06719756
58	0x3d8806a8	0.066418946
59	0xbdb2ddab	-0.08733686
60	0x3cb06ed9	0.021537231
61	0x3eb658e7	0.35614702
62	0x3e460b1a	0.19340172
63	0x3d912c80	0.07088566
64	0xbd73fc12	-0.059566565
65	0x3d536f3f	0.051619764
66	0x3e63bc35	0.22239764
67	0x3c098c17	0.008395216
68	0x3d20bde7	0.039243605
69	0xbe1740bf	-0.14770792
70	0x3e0a4d09	0.13505949
71	0x3e4d340b	0.20039384
72	0x3e3402d9	0.17579211
73	0x3e78bd35	0.24290927
74	0xbdbd983d	-0.09257553
75	0xbd781add	-0.060572494
76	0x3e2284d3	0.15870981
77	0xbdabf9ea	-0.08397277
78	0x3e11247c	0.14174074
79	0xbd024985	-0.031808395
80	0xbdce26b1	-0.100659736
81	0x3e090462	0.13380578
82	0x3dc35f3e	0.095396504
83	0xbdf224c0	-0.11823416
84	0x3d1cba58	0.03826365
85	0xbe013d16	-0.12620959
86	0x3d619a88	0.055079013
87	0xbd814bcf	-0.063132875
88	0xbea483c2	-0.32131773
89	0x3e30c9c6	0.1726447
90	0xbcf38d2d	-0.029730404
91	0x3dc9d961	0.09855915
92	0x3e4d23da	0.20033208
93	0x3cdf187b	0.027233353
94	0xbd5d65de	-0.054052226
95	0x3e145b87	0.1448804
96	0x3cac19cd	0.021008397
97	0x3ebbbeab	0.36668906
98	0xbde158d7	-0.11003273
99	0xbe86f2cd	-0.26357117
100	0x3dbf1bab	0.09331449
101	0xbd6cf145	-0.05784728
102	0x3de1a4b5	0.110177435
103	0x3def9b80	0.11699581
104	0x3dde6464	0.10858992
105	0x3e02b597	0.12764584
106	0xbbf5a6e1	-0.0074967
107	0xbe07f635	-0.13277514
108	0x3e0dd020	0.13848925
109	0xbe309658	-0.17244852
110	0xbe0a60a4	-0.13513428
111	0x3c1fb78f	0.009748354
112	0x3ddc4c7f	0.10756778
113	0x3dfe02af	0.124028556
114	0x3cbc78cd	0.023006821
115	0x3dc6614e	0.09686528
116	0x3d4893d1	0.048969094
117	0xbd8c8631	-0.068615325
118	0xbe5039ca	-0.20334545
119	0x3ce56d68	0.02800627
120	0x3d153d98	0.036435694
121	0xbeadfa0e	-0.3397984
122	0xbf00480e	-0.50109947
123	0xbdde272f	-0.108473174
124	0x3b10a62f	0.002207171
125	0xbe050a98	-0.12992322
126	0x3dc54bd7	0.09633606
127	0xbc9ed11d	-0.019386822
128	0xbc8bb858	-0.017055675
129	0x3e15d77d	0.14632984
130	0xbcd26388	-0.025682226
131	0x3db0a742	0.08625652
132	0x3cae45ef	0.021273581
133	0x3d815dfe	0.06316756
134	0xbe77a5cd	-0.24184342
135	0xbbe8a635	-0.0070998915
136	0xbdbc79f8	-0.09202951
137	0xbc6923f2	-0.014229761
138	0xbee0f466	-0.4393646
139	0x3cfef3a5	0.031122038
140	0xbd31c9e3	-0.043405425
141	0x3d77cc7d	0.06049775
142	0x3e93e592	0.28886086
143	0xbe7540fb	-0.2395057
144	0xbcd88a1d	-0.026433045
145	0x3e1f6cab	0.15568797
146	0x3e135285	0.14386947
147	0xbd2f730c	-0.042834327
148	0xbe2c55e4	-0.1682964
149	0xbdf00277	-0.1171922
150	0xbe1c0504	-0.15236288
151	0xbd88ecb5	-0.06685773
152	0xbd25bac0	-0.0404613
153	0x3cb68a39	0.022282707
154	0x3d990300	0.07471275
155	0xbd84bffc	-0.064819306
156	0x3d47bc94	0.048763826
157	0xbda5d46d	-0.080971576
158	0x3d864591	0.065562375
159	0xbe0a5f61	-0.13512947
160	0x3e668ff8	0.22515857
161	0xbd7cc168	-0.061707884
162	0xbe412548	-0.18861878
163	0xbe060986	-0.1308957
164	0xbe18e231	-0.14930035
165	0x3e2aea30	0.16690898
166	0xbe653932	-0.223851
167	0xbc29fc39	-0.010375076
168	0x3d13ecf3	0.036114644
169	0xbc852447	-0.01625265
170	0x3d7105e9	0.058843527
171	0xbed11171	-0.4083362
172	0xbec92dde	-0.39292806
173	0xbdd18937	-0.1023125
174	0x3da41eb2	0.08013667
175	0x3e2df56b	0.16988151
176	0xbd17e4c5	-0.037083406
177	0xbd7d5ea7	-0.061857846
178	0x3d8794eb	0.06620201
179	0xbdad23d4	-0.08454099
180	0x3ca13c2b	0.01968201
181	0x3d0537bd	0.03252386
182	0x3d6bf50c	0.05760674
183	0x3d0ce5d3	0.034398865
184	0xbdb93906	-0.090440795
185	0xb9b1e873	-0.0003393326
186	0xbc9b06a1	-0.01892406
187	0x3d224d41	0.039624456
188	0x3ca8830e	0.020570304
189	0xbd05bdaf	-0.0326516
190	0x3ca4e517	0.02012877
191	0x3e7e93a9	0.24861015
192	0x3e939503	0.28824624
193	0x3da2846d	0.079354145
194	0xbebfd208	-0.3746493
195	0xbe34f070	-0.17669845
196	0x3b50d6e3	0.0031866364
197	0x3d36d957	0.044640865
198	0xbc642c85	-0.01392663
199	0xbe3138f6	-0.17306885
200	0x3dc4a38b	0.09601506
201	0x3e2dab7c	0.16959947
202	0xbe83773c	-0.25676906
203	0xbe152dcf	-0.14568256
204	0xbcd7f40f	-0.026361493
205	0x3e0ebaf3	0.13938503
206	0x3dbb5993	0.09147944
207	0x3dd7d84d	0.10539303
208	0x3c6e7cf0	0.014556155
209	0x3d22e032	0.03976459
210	0xbe3a238b	-0.18177621
211	0x3e4574cc	0.19282836
212	0x3e395a9c	0.18100971
213	0xbd884ece	-0.06655656
214	0x3e171899	0.14755477
215	0xbe10b375	-0.14130957
216	0xbe194f55	-0.14971669
217	0xbdc50ba7	-0.09621363
218	0xbe01191c	-0.12607235
219	0x3da6fbff	0.08153533
220	0xbd077533	-0.033070754
221	0xbe899094	-0.26868117
222	0xbdb16002	-0.0866089
223	0x3d935883	0.07194617
224	0x3da163b3	0.07880344
225	0xbd550890	-0.05201012
226	0x3cd30b30	0.02576217
227	0x3df690ad	0.120393135
228	0xbd9094a7	-0.07059603
229	0xbe38b0fa	-0.18036261
230	0x3d9cf906	0.07664685
231	0x3daaffe8	0.083495915
232	0x3c6bce57	0.014392457
233	0x3e738889	0.23782553
234	0xbe4a8069	-0.19775547
235	0x3e119a40	0.14218998
236	0x3e3be423	0.18348746
237	0x3c6a0f47	0.014285869
238	0xbdce1a5f	-0.10063624
239	0xbdce3240	-0.10068178
240	0x3d90f0b0	0.070771575
241	0x3e6cce55	0.23125584
242	0x3e0f475f	0.1399207
243	0xbd24c117	-0.040223207
244	0x3d56152b	0.05226628
245	0x3d68040b	0.05664448
246	0x3e21070b	0.15725343
247	0xbd087ccf	-0.03332215
248	0xbce42d59	-0.027853655
249	0xbd520aea	-0.05127994
250	0x3d41e2a0	0.047335267
251	0x3d3a5bf2	0.045497842
252	0x3dcdbe81	0.10046101
253	0x3d460885	0.04834797
254	0x3dada107	0.08477979
255	0x3dba1a33	0.09087028

fc1.bias f4 [120]
0	0x3c65a4b7	0.014016322
1	0xbd847f05	-0.064695396
2	0x3d902623	0.07038524
3	0x3d88392d	0.066515304
4	0xbd86b541	-0.0657754
5	0x3d95e9b0	0.07319963
6	0xbdab25d8	-0.083568275
7	0xbc0a9cda	-0.008460248
8	0xbdc450fe	-0.095857605
9	0x3c5f2c92	0.013621466
10	0xbc910820	-0.01770407
11	0xbcf26cab	-0.029592833
12	0x3de9cc89	0.11415965
13	0xbd70cee4	-0.058791056
14	0xbd73a17c	-0.059480175
15	0x3e043eb9	0.12914552
16	0xbb1c870f	-0.0023884212
17	0x3e49e072	0.19714525
18	0x3dbfdbcb	0.09368094
19	0x3daeacdd	0.08529065
20	0xbc747265	-0.014919852
21	0xbde378a3	-0.11106994
22	0x3e2a1fc5	0.16613682
23	0x3cb3045d	0.021852667
24	0xbd426991	-0.047463957
25	0x3d6ff9a7	0.058587696
26	0x3daa3920	0.08311677
27	0xbde730be	-0.11288594
28	0x3d963aac	0.073354095
29	0xbe0926dc	-0.1339373
30	0xbe0d58a8	-0.13803351
31	0x3ded9b7b	0.11601921
32	0xbd6f2df3	-0.05839343
33	0x3d241da5	0.040067334
34	0x3de76428	0.112984
35	0xbdbd370d	-0.09239016
36	0x3e7f9fa2	0.24963239
37	0x3da5058c	0.080576986
38	0x3da95a11	0.08269132
39	0xbe5ec8bb	-0.2175626
40	0xbcee3954	-0.02908007
41	0xbe23469d	-0.15944906
42	0x3dec372b	0.1153396
43	0x3e35930a	0.17731872
44	0xbe2b6676	-0.16738304
45	0xbbbcdc13	-0.0057635396
46	0xbe39cd68	-0.18144763
47	0x3ca30dcb	0.019904038
48	0x3df9b733	0.121931456
49	0xbd348a9e	-0.04407751
50	0x3e1285fe	0.14308926
51	0xbe220d03	-0.15825276
52	0xbd521291	-0.051287238
53	0x3e058701	0.13039781
54	0xbd58d716	-0.052939497
55	0x3e0e44b1	0.13893391
56	0x3d60ef44	0.05491568
57	0xbe3266a1	-0.17421962
58	0xbe10b093	-0.14129858
59	0xbde6b1e5	-0.112643994
60	0xbdf39d87	-0.1189528
61	0x3bbce81f	0.0057649757
62	0xbd08b6a1	-0.033377293
63	0x3d4e5054	0.050369576
64	0x3b3451bc	0.0027514538
65	0x3e20c718	0.15700948
66	0x3e5e9f07	0.21740352
67	0xbd8bc6a8	-0.06825
68	0x3dbd7297	0.09250372
69	0x3c280a70	0.010256395
70	0x3d31c672	0.043402143
71	0xbc44f292	-0.012020724
72	0xbe335a30	-0.17514873
73	0xbd3d1fd5	-0.046172936
74	0xbc47cfa1	-0.012195499
75	0xbdd29449	-0.102821894
76	0x3e1ed665	0.15511473
77	0x3c9d36f1	0.019191237
78	0x3d8cd6fa	0.06876941
79	0xbdcc38c9	-0.099717684
80	0xbe0b69f8	-0.13614643
81	0xbc275575	-0.010213246
82	0xbbe4d804	-0.006983759
83	0xbd97454d	-0.07386265
84	0x3c81a520	0.015825808
85	0x3e0cab67	0.1373726
86	0x3da0cb89	0.07851321
87	0x3d8a2869	0.06745989
88	0xbb00ea62	-0.0019670953
89	0xbdebd3d2	-0.11515011
90	0xbdf08e93	-0.11745944
91	0xbcc7012a	-0.024292547
92	0x3cd26739	0.025683986
93	0x3c1589c7	0.009127087
94	0xbe0913ec	-0.13386506
95	0x3db8d197	0.09024351
96	0x3dd14859	0.10218877
97	0x3e502b39	0.20328988
98	0xbdd4930f	-0.10379612
99	0xbd114134	-0.035462573
100	0xbc38e85a	-0.011285866
101	0xbe1ee918	-0.15518606
102	0x3e1f55cb	0.15560071
103	0xbe2c350c	-0.16817111
104	0xbe2fceb1	-0.1716869
105	0x3d7f6555	0.062352497
106	0xbd521a34	-0.05129452
107	0x3ddeb841	0.108749874
108	0xbdc81365	-0.09769324
109	0x3dc33ea7	0.09533434
110	0xbd8806a9	-0.06641895
111	0xbe2bb08b	-0.16766565
112	0xbd2df1c1	-0.042466883
113	0xbb92e57e	-0.004482924
114	0xbd82bac2	-0.063832775
115	0x3d689ff7	0.05679318
116	0xbc8ad861	-0.01694888
117	0x3cacafdf	0.021079956
118	0xbd01289a	-0.03153286
119	0x3debfb63	0.115225576

fc2.weight f4 [84, 120]
0	0x3e2a10ee	0.1660802
1	0xbd08703e	-0.033310167
2	0x3c20089a	0.009767676
3	0xbdc3220c	-0.09527978
4	0xbd96ad96	-0.07357328
5	0x3e291a9b	0.16514055
6	0xbd06154a	-0.032735147
7	0x3dae9a7e	0.08525561
8	0x3d3bf769	0.045890246
9	0xbd0c3e11	-0.03423888
10	0xbd013c84	-0.031551853
11	0xbcbdb65d	-0.023158247
12	0x3dcc06b5	0.09962217
13	0xbe4c7724	-0.19967324
14	0xbcaefbb2	-0.021360252
15	0x3db58cd5	0.08864752
16	0xbbbc472e	-0.00574579
17	0xbdf12294	-0.117741734
18	0x3dba2cdc	0.090905875
19	0x3d9f5692	0.07780184
20	0xbe0f679c	-0.14004368
21	0x3c26cddf	0.010180919
22	0xbd98b51f	-0.07456421
23	0xbe1bc8d1	-0.15213324
24	0xbcbd697b	-0.023121586
25	0x3cba6479	0.022752987
26	0xbdce47c2	-0.100722805
27	0x3e45ed8a	0.19328895
28	0xbd12974c	-0.03578882
29	0x3bf97143	0.007612379
30	0x3d78a9d7	0.060708847
31	0x3d488a52	0.048960038
32	0xbd52fcd7	-0.051510658
33	0xbd7f5b8a	-0.062343158
34	0xbe3b179b	-0.18270724
35	0xbdc0b316	-0.09409158
36	0xbcd8f667	-0.026484681
37	0x3c7a5a7d	0.015280363
38	0x3ac2a92a	0.001485144
39	0x3df69c83	0.12041571
40	0x3cc9a530	0.0246149
41	0xbd8dcef3	-0.06924238
42	0xbe1cc36f	-0.15308927
43	0x3cf92a31	0.030415626
44	0x3dc73e76	0.0972871
45	0xbd2eb390	-0.042651713
46	0xbda583fb	-0.08081814
47	0x3d1b3003	0.037887584
48	0x3e112fce	0.14178392
49	0x3dc8e6f2	0.09809674
50	0x3e09aea3	0.13445525
51	0xbdac073a	-0.08399816
52	0xbd2e83e2	-0.042606242
53	0x3cac1438	0.021005735
54	0xbdb05045	-0.0860906
55	0xbe432249	-0.19056047
56	0xbd07366c	-0.033010885
57	0x3da07775	0.078352846
58	0x3d6e0b4f	0.058116253
59	0xbdc444bd	-0.09583423
60	0x3d731721	0.05934823
61	0x3c89db7d	0.016828293
62	0x3e4e5df2	0.20153025
63	0xbd56d955	-0.052453358
64	0xbd36dd07	-0.04464438
65	0x3d87851d	0.06617186
66	0xbd505fc5	-0.050872583
67	0x3d854f5b	0.065092765
68	0xbc98c7fc	-0.018650047
69	0xbe245c4f	-0.16050838
70	0xbe0e5821	-0.13900806
71	0xbd7a7e9a	-0.061155893
72	0x3d4fad00	0.050702095
73	0xbe47c05e	-0.19506976
74	0xbdec0a92	-0.115254536
75	0x3ccb0d38	0.024786577
76	0x3db4b664	0.08823851
77	0x3df96e7d	0.12179277
78	0xbbc810ce	-0.006105519
79	0x3dfd9835	0.12382547
80	0xbd596ffe	-0.05308532
81	0xbe39dada	-0.18149891
82	0x3bad235f	0.0052837576
83	0xbd370f29	-0.044692192
84	0xbd54733a	-0.0518677
85	0xbe3990c1	-0.18121625
86	0xbe1533fd	-0.14570613
87	0xbd345323	-0.044024598
88	0xbe42d217	-0.19025455
89	0xbdce7abd	-0.10082004
90	0x3c5c934c	0.013462853
91	0x3e12448b	0.1428396
92	0xbda4f8c0	-0.08055258
93	0xbc049560	-0.008092254
94	0xbe0f798e	-0.14011213
95	0x3e8f5398	0.27993464
96	0xbcc5887a	-0.024112929
97	0x3d7b467e	0.061346523
98	0xbc90dc6c	-0.01768323
99	0xbc808117	-0.015686555
100	0xbe1a17f9	-0.15048207
101	0xbde63554	-0.1124064
102	0xbd56524d	-0.052324582
103	0x3dfdd834	0.12394753
104	0x3dce4348	0.10071427
105	0x3e316247	0.17322646
106	0x3d27ad1f	0.040936586
107	0x3d4c15b9	0.049825404
108	0x3ccfc9b0	0.025364727
109	0xbc03f359	-0.008053624
110	0x3e047780	0.1293621
111	0x3dab22a0	0.083562136
112	0xbd00595f	-0.03133523
113	0xbd0d2a7b	-0.03446434
114	0xbd7ad090	-0.061234057
115	0x3d6e57ac	0.05818908
116	0xbdade06c	-0.08490071
117	0xbdc04623	-0.093883775
118	0x3e283a30	0.16428447
119	0x3c8e082e	0.017337885
120	0xbe719e2c	-0.23595494
121	0x3e2f1e1c	0.1710133
122	0xbdc74d51	-0.09731544
123	0xbe068151	-0.13135268
124	0xbe68740d	-0.2270052
125	0xbe07e3ac	-0.13270444
126	0x3dc44e5b	0.095852576
127	0x3d510086	0.05102589
128	0xbe4ad90e	-0.19809362
129	0x3d927b8d	0.07152472
130	0xbdc616ac	-0.09672293
131	0x3d44f532	0.0480854
132	0x3da512d6	0.08060233
133	0x3e183e11	0.14867426
134	0xbd9d5a5d	-0.07683251
135	0x3dd5ea48	0.10445076
136	0xbe2cf7a7	-0.16891347
137	0xbdc9fe82	-0.09862997
138	0xbde0c0c7	-0.10974269
139	0xbec49f9f	-0.3840303
140	0xbd1123e8	-0.035434633
141	0xbe89df41	-0.26928142
142	0x3e677303	0.22602467
143	0x3cd9114d	0.026497507
144	0x3d6db48b	0.058033507
145	0xbd4dd88e	-0.05025535
146	0x3c9dd917	0.019268556
147	0x3e3ec848	0.18631089
148	0x3d92c34a	0.07166155
149	0xbd67f069	-0.056625757
150	0xbe058018	-0.13037145
151	0x3cc255cf	0.023722557
152	0xbd852029	-0.06500275
153	0x3e515014	0.20440704
154	0x3e2c37c7	0.16818152
155	0xbe867ce4	-0.2626716
156	0x3e604d04	0.21904379
157	0x3e70eaae	0.23527023
158	0x3b78679a	0.0037903548
159	0xbe670a43	-0.22562508
160	0x3d4804a1	0.04883254
161	0xbed84eb7	-0.42247555
162	0xbde1201d	-0.10992453
163	0xbbea0d87	-0.007142726
164	0xbd906f5f	-0.07052492
165	0xbdc75293	-0.09732547
166	0xbe3c21c2	-0.18372253
167	0xbe5801b9	-0.21094407
168	0xbc960242	-0.018311623
169	0xbea1eb7c	-0.31624973
170	0x3e7adbac	0.2449786
171	0xbe12c5ec	-0.14333314
172	0x3e18a0c4	0.14905077
173	0x3d142ce1	0.036175612
174	0x3e2ec661	0.17067863
175	0x3e05f293	0.13080816
176	0x3d745bc5	0.05965783
177	0xbd8202a0	-0.06348157
178	0x3dfddcb5	0.12395612
179	0xbda70163	-0.08154561
180	0x3d12a793	0.035804342
181	0x3d836081	0.06414891
182	0xbd3db199	-0.04631195
183	0xbcf59959	-0.029980348
184	0x3e0fce3a	0.14043513
185	0x3d0af423	0.033924233
186	0x3e917073	0.28406104
187	0x3d20057d	0.039067734
188	0x3e954f75	0.29162183
189	0x3e173c5f	0.14769123
190	0x3e586f69	0.2113625
191	0xbe899be0	-0.26876736
192	0xbde3e7e0	-0.11128211
193	0xbdeb4a7c	-0.11488816
194	0x3dd7bf61	0.105345495
195	0xbd27dd8a	-0.04098276
196	0xbe0e5707	-0.13900386
197	0xbe398d79	-0.18120374
198	0xbbe4a1e7	-0.006977308
199	0xbda20398	-0.07910842
200	0x3d63e5e7	0.055639174
201	0x3dca91eb	0.09891113
202	0x3d1c5a8e	0.038172297
203	0x3d770b2f	0.0603134
204	0x3d47c2aa	0.04876963
205	0x3d2393e1	0.03993595
206	0xbe515ec3	-0.20446305
207	0x3cc67457	0.024225397
208	0x3cdd7935	0.027035335
209	0x3b7c68c7	0.00385146
210	0xbd6da7e5	-0.058021445
211	0xbd98a88d	-0.074540235
212	0x3dc16cf1	0.09444607
213	0x3e47e203	0.1951981
214	0x3e0c2a9c	0.13688129
215	0x3dc63590	0.09678185
216	0x3e834abf	0.25642964
217	0x3e3ee5e9	0.18642391
218	0xbd606962	-0.054788
219	0x3b3ad576	0.002850858
220	0xbbcfc7b3	-0.0063409447
221	0x3e22418c	0.15845317
222	0x3e01a7a2	0.12661603
223	0xbe5f9d26	-0.21837291
224	0xbcfba703	-0.030719286
225	0x3e09c7e0	0.13455153
226	0x3c0b2f0c	0.008495104
227	0xbe2ff651	-0.17183806
228	0xbda1de72	-0.07903756
229	0x3e4b460b	0.19850938
230	0x3e84bece	0.25926822
231	0xbe07e3d9	-0.1327051
232	0xbcc6988c	-0.024242662
233	0xbd2c1f96	-0.04202231
234	0xbd1b5978	-0.03792712
235	0xbe363fea	-0.17797819
236	0x3d3bf696	0.04588946
237	0xbd351abc	-0.04421495
238	0xbd79f345	-0.061023016
239	0xbd27b8d0	-0.040947735
240	0x3dd99e92	0.10625948
241	0xbdafaebf	-0.08578252
242	0xbd223e8c	-0.03961043
243	0x3d83cf08	0.064359725
244	0x3dd259e7	0.10271054
245	0xbd6e28c3	-0.058144342
246	0xbd90adc7	-0.070643954
247	0x3e2f3c9d	0.17112966
248	0x3e110783	0.14163022
249	0xbdb0630a	-0.0861264
250	0x3bf0c414	0.007347593
251	0xbdde3009	-0.10849006
252	0xbc9f0cc1	-0.019415261
253	0x3dee3bef	0.11632525
254	0x3e0131e1	0.12616684
255	0xbe0e1194	-0.13873893

fc2.bias f4 [84]
0	0xbd6896b9	-0.056784365
1	0x3e07d32d	0.13264151
2	0xbe0b2bc8	-0.1359092
3	0x3e2eb4a5	0.17061098
4	0x3d06ae15	0.03288086
5	0x3e695cc9	0.22789301
6	0xbe163fcd	-0.14672776
7	0xbda98610	-0.082775235
8	0xbe476797	-0.1947311
9	0x3e46b03a	0.19403163
10	0x3dcc088a	0.09962566
11	0xbcfc9cdf	-0.03083652
12	0xbdd8503f	-0.10562181
13	0x3e2783ec	0.16358918
14	0xbe340884	-0.17581373
15	0x3cfa8e9e	0.030585583
16	0x3d25dda5	0.04049458
17	0x3e1dc52c	0.15407246
18	0xbe39d005	-0.1814576
19	0x3d0cec14	0.03440483
20	0x3df9b72e	0.12193142
21	0xbd0dadac	-0.034589455
22	0x3d8c8e4d	0.06863079
23	0xbd6d7a9b	-0.057978254
24	0xbcf53022	-0.029930178
25	0xbe78605f	-0.24255513
26	0xbdd9223b	-0.10602232
27	0x3b64a828	0.0034890268
28	0xbd98081b	-0.07423421
29	0x3d30fea8	0.04321161
30	0xbe2aaa8b	-0.1666662
31	0x3d4cec03	0.050029766
32	0xbdee1332	-0.11624755
33	0x3d2bd90d	0.041955043
34	0x3cd24fc3	0.025672799
35	0xbe0be126	-0.13660106
36	0x3e0cceac	0.13750714
37	0x3ca29746	0.019847523
38	0x3c09824d	0.0083928825
39	0x3dc117c4	0.09428361
40	0x3e819926	0.25312155
41	0x3d38a2c1	0.04507709
42	0xbddfdc5d	-0.10930703
43	0x3e858e0c	0.26084936
44	0xbdbb2040	-0.091370106
45	0xbe74bf38	-0.23901069
46	0x3cf5105a	0.029915024
47	0x3dac9c53	0.08428254
48	0x3dd66cd9	0.1046998
49	0xbe2a257a	-0.16615859
50	0x3e033182	0.12811854
51	0xbe6b8d0d	-0.23003025
52	0x3d11dcf1	0.035611097
53	0x3e4666f7	0.19375215
54	0xbe09e8a5	-0.13467653
55	0xbdca2583	-0.09870436
56	0xbd8ac0e3	-0.067750715
57	0x3cef717e	0.029228922
58	0x3d095f1c	0.03353797
59	0x3e254602	0.16139987
60	0x3e0f2204	0.1397782
61	0x3c82301e	0.015892085
62	0x3e125281	0.14289285
63	0x3e0bbf85	0.13647278
64	0xbe3bbca9	-0.18333687
65	0x3e310842	0.17288306
66	0x3e11a245	0.14222057
67	0x3da97cce	0.08275758
68	0x3e425686	0.18978319
69	0x3dd70b22	0.1050017
70	0x3d498f5f	0.049208995
71	0xbd9d99bf	-0.0769534
72	0xbc60be89	-0.013717302
73	0xbe5d04ce	-0.21583864
74	0xbdc009bc	-0.09376857
75	0x3d7d7ad3	0.061884712
76	0xbd9d6250	-0.07684767
77	0x3e425fdb	0.18981878
78	0x3ddd4c65	0.10805587
79	0x3dc239cb	0.094836794
80	0xbe7979ff	-0.24362944
81	0x3da6359b	0.08115693
82	0x3c49ed31	0.012324617
83	0x3d84f1fd	0.06491468

fc3.weight f4 [10, 84]
0	0xbcc9f2eb	-0.024651965
1	0xbd7cac30	-0.06168765
2	0x3e25bc32	0.16185072
3	0x3e36dc87	0.17857562
4	0xbe4bd082	-0.19903758
5	0x3dd6689e	0.10469173
6	0xbdcb0244	-0.099125415
7	0x3db4df49	0.08831651
8	0x3c4945f6	0.012284746
9	0x3e08a925	0.13345774
10	0xbddc5e31	-0.10760153
11	0xbdc5fe57	-0.09667652
12	0xbdfedb97	-0.12444227
13	0xbdde6415	-0.10858933
14	0x3dc735cd	0.097270586
15	0x3c7cc287	0.015427238
16	0x3d57d29d	0.05269109
17	0x3d3f1649	0.046652112
18	0xbe27cb53	-0.16386156
19	0xbe3484ab	-0.17628734
20	0xbdab1333	-0.08353271
21	0xbd306137	-0.04306146
22	0x3e6f9e08	0.23400128
23	0x3e239b3d	0.15977187
24	0x3e3acabd	0.18241401
25	0xbd897688	-0.06712061
26	0xbce5fa41	-0.028073432
27	0xbd989593	-0.07450404
28	0xbdeb1f36	-0.114805624
29	0xbc93b3d3	-0.018030083
30	0x3cea5c3c	0.028608434
31	0xbdfa5132	-0.12222518
32	0xbe530942	-0.20609
33	0x3e484737	0.19558416
34	0x3dd987e9	0.10621626
35	0x3e3b912b	0.18317096
36	0xbcfe4477	-0.031038506
37	0x3db1a4f8	0.086740434
38	0xbdbdaa74	-0.09261027
39	0xbd3df288	-0.046373874
40	0xbc9e9aeb	-0.01936098
41	0xbcb1eb38	-0.021718606
42	0x3d900949	0.07033021
43	0xbc9206aa	-0.017825443
44	0x3d0a73e6	0.033801936
45	0xbddf9806	-0.10917668
46	0xbde89060	-0.11355662
47	0xbd974f2d	-0.073881485
48	0xbe0542c7	-0.13013755
49	0x3c83a404	0.01606942
50	0x3d17e06f	0.03707927
51	0x3df2a46d	0.11847768
52	0x3dc1f2a6	0.0947011
53	0xbd5fb802	-0.054618843
54	0x3db98adf	0.09059691
55	0x3d9bcae0	0.07607055
56	0x3e132abc	0.1437177
57	0xbe16569e	-0.1468148
58	0xbcbee539	-0.023302661
59	0x3d9aed37	0.075647764
60	0xbb352a70	-0.0027643703
61	0x3db08fdb	0.08621188
62	0x3db8c4d7	0.09021919
63	0xbc942b56	-0.01808707
64	0xbe4248e5	-0.1897312
65	0x3ddb3893	0.1070415
66	0xbd659f21	-0.05605996
67	0x3da079b0	0.0783571
68	0x3d9a2f9a	0.075286105
69	0xbe2e4895	-0.17019875
70	0x3d63fbb5	0.05565997
71	0xbdcdfe60	-0.10058284
72	0x3e2c3fce	0.16821215
73	0x3dacf422	0.08445002
74	0x3e0d7a08	0.13816082
75	0xbde2a30a	-0.110662535
76	0x3c5a28c5	0.013315384
77	0xbdb015d2	-0.08597912
78	0x3e155604	0.14583594
79	0x3d2a1ad0	0.041529477
80	0xbd77c790	-0.060493052
81	0x3c91471b	0.017734101
82	0x3de57f6d	0.11205945
83	0x3de9812c	0.11401591
84	0x3cfff88e	0.03124645
85	0x3b82b37c	0.0039886814
86	0x3d5087c2	0.05091072
87	0xbccde79c	-0.025134854
88	0xbe35413c	-0.17700666
89	0xbeaa5ec6	-0.3327543
90	0xbdaac6fc	-0.083387345
91	0xbe2f9cc7	-0.1714965
92	0xbcb300b1	-0.021850916
93	0x3e0c9ca4	0.13731629
94	0xbe0d1c21	-0.13780262
95	0x3db34d7e	0.08755015
96	0xbe20916a	-0.15680471
97	0xbdd1a3f2	-0.10236348
98	0xbe381f1d	-0.17980619
99	0x3e9898b1	0.29803994
100	0x3e180d47	0.14848815
101	0xbdf8d0dc	-0.12149212
102	0xbbf2b21a	-0.0074064853
103	0x3e6694e7	0.22517739
104	0xbe3d53f6	-0.1848906
105	0x3e5296cd	0.20565338
106	0xbd626ebe	-0.055281393
107	0x3e436a36	0.19083485
108	0xbd188a87	-0.037241485
109	0xbd7acef5	-0.061232526
110	0x3e31a78e	0.17349073
111	0xbdc95c80	-0.09832096
112	0xbd839fae	-0.06426941
113	0x3e14f9a6	0.14548358
114	0xbe11c905	-0.14236839
115	0xbe2c2798	-0.16811979
116	0x3db1477a	0.08656211
117	0x3d17b252	0.037035294
118	0x3e036010	0.12829614
119	0x3e57538e	0.21027967
120	0xbde8c340	-0.11365366
121	0x3e38ded5	0.18053754
122	0xbd653993	-0.05596311
123	0xbded6c60	-0.115929365
124	0xbe38667d	-0.18007846
125	0xbd2a2ff8	-0.041549653
126	0x3e1bf0e7	0.15228616
127	0xbd46dc52	-0.048549958
128	0xbe3313a2	-0.17487958
129	0x3cd43240	0.025902867
130	0xbe0139df	-0.12619732
131	0xbe92a57b	-0.28641877
132	0xbe85b0e2	-0.26111513
133	0x3d0566f8	0.0325689
134	0xbde5dfb4	-0.112243086
135	0x3e6f6961	0.23380043
136	0x3e4cd4fa	0.20003119
137	0xbdb2c22e	-0.08728443
138	0x3d67b26e	0.05656665
139	0x3e58b1a1	0.2116151
140	0x3e2e18d6	0.17001662
141	0xbe87e637	-0.26542827
142	0x3d4d4423	0.05011381
143	0xbe81f3aa	-0.25381213
144	0xbe7fcd5f	-0.24980687
145	0x3d358696	0.044317804
146	0xbe611744	-0.21981531
147	0xbe203351	-0.15644576
148	0x3dc94983	0.098284744
149	0xbbcad43b	-0.0061898506
150	0x3e0c9bcb	0.13731305
151	0xbec7b8c9	-0.39008167
152	0x3d394d27	0.045239594
153	0xbe0758aa	-0.13217416
154	0x3d81568c	0.06315336
155	0xbe0b886c	-0.1362626
156	0xbdad09b7	-0.084491186
157	0x3d32aee5	0.043623824
158	0x3ca89623	0.020579403
159	0x3df57c67	0.119866185
160	0x3cb10884	0.021610506
161	0xbe0ea652	-0.13930634
162	0xbe85ecb4	-0.26157153
163	0x3e68d024	0.2273565
164	0x3e1a008f	0.15039276
165	0x3dc1ef96	0.094695255
166	0x3e2ebaa1	0.17063381
167	0x3d402c52	0.046917267
168	0xbc59ad35	-0.013285925
169	0xbe1063f9	-0.14100637
170	0xbde22046	-0.11041312
171	0x3e40e280	0.18836403
172	0x3d536405	0.051609058
173	0x3de57c22	0.11205317
174	0x3c4fa3a2	0.01267329
175	0xbe2cf93f	-0.16891955
176	0xbe22d3f2	-0.15901163
177	0x3dba1ff1	0.090881236
178	0xbe263886	-0.162325
179	0x3db14486	0.08655648
180	0xbda25fdd	-0.07928441
181	0xbdeae3a4	-0.114692
182	0x3dbf6205	0.093448676
183	0xba7b8546	-0.00095947494
184	0x3df8ab47	0.121420436
185	0xbd1579f0	-0.03649324
186	0xbdb6fcfc	-0.08934972
187	0xbd2ce3db	-0.042209487
188	0x3d53dae5	0.051722426
189	0xbd0e0736	-0.034674846
190	0x3de020eb	0.109437786
191	0xbe46e38f	-0.19422744
192	0x3e07b0aa	0.13250986
193	0xbe14766c	-0.144983
194	0x3b4475e6	0.00299775
195	0xbb2563f3	-0.0025236576
196	0xbd256bd5	-0.04038604
197	0x3e17ef8f	0.14837478
198	0xbd4b769e	-0.04967367
199	0x3e8a4d45	0.27012077
200	0x3d07d4c6	0.0331619
201	0xbd1b4f24	-0.03791727
202	0x3a0d609a	0.0005393118
203	0x3e1f1569	0.15535511
204	0xbc8e077c	-0.017337553
205	0xbd909363	-0.07059362
206	0x3d6537ea	0.055961527
207	0x3d1b99ce	0.037988476
208	0x3dc1457d	0.09437082
209	0x3c12f889	0.008970388
210	0xbe3874b4	-0.18013269
211	0x3e26892c	0.16263264
212	0x3decb501	0.11557961
213	0xbe1cac81	-0.1530018
214	0xbcf78ff8	-0.030220017
215	0x3da0966d	0.078411914
216	0xbd239a68	-0.039942175
217	0x3d92ad5b	0.07161971
218	0x3c999938	0.018749818
219	0xbdc18712	-0.09449591
220	0x3dc7d37a	0.09757133
221	0x3e3307f5	0.17483504
222	0xbd4e99b7	-0.050439563
223	0x3cef02d1	0.029176148
224	0x3e1399cf	0.14414142
225	0xbcc52980	-0.02406764
226	0xbe020374	-0.1269663
227	0x3e4dc47c	0.20094484
228	0x3e2c6614	0.16835815
229	0x3e237afd	0.15964885
230	0x3de4c8f9	0.11171145
231	0xbdcdf646	-0.100567386
232	0xbd80af5f	-0.062834494
233	0x3e63805e	0.22216937
234	0x3d8f147f	0.06986331
235	0xbc27eb93	-0.010249036
236	0x3c3cbd79	0.011519783
237	0xbe277b8d	-0.16355725
238	0x3cd7c80f	0.026340513
239	0xbb90c66a	-0.004418184
240	0xbd90a647	-0.07062965
241	0x3b304ac4	0.0026900033
242	0x3e351855	0.17685063
243	0x3e2061ea	0.15662351
244	0x3d50b383	0.050952446
245	0xbda6119f	-0.0810883
246	0xbb9fd928	-0.004878182
247	0x3d0df4ea	0.034657396
248	0xbd37d0f6	-0.044877015
249	0x3e088d43	0.13335137
250	0xbe1dd7de	-0.15414378
251	0xbd96b3b6	-0.07358496
252	0xbdc50646	-0.09620337
253	0xbdbd53c9	-0.092444964
254	0x3d470a3a	0.048593737
255	0x3e30e222	0.17273763

fc3.bias f4 [10]
0	0xbd075780	-0.03304243
1	0xbe803363	-0.25039205
2	0x3e6e4696	0.23269114
3	0x3d930726	0.07179098
4	0xbccf1af6	-0.02528141
5	0xbd1312c9	-0.035906587
6	0x3e18a873	0.14908008
7	0xbd963ecc	-0.07336196
8	0x3e596ac7	0.21232139
9	0xbe688ef5	-0.22710784
